…
Parsing HapMap recombination rates...
parameters <class 'list'> [<util.Parameter object at 0x7f5f8d00cf50>, <util.Parameter object at 0x7f5f69ad1ad0>, <util.Parameter object at 0x7f5f69ad1b10>, <util.Parameter object at 0x7f5f70f2b790>, <util.Parameter object at 0x7f5f69b7b990>, <util.Parameter object at 0x7f5f69ada550>, <util.Parameter object at 0x7f5f69adad90>]
Model: "two_pop_model"
_________________________________________________________________
Layer (type)                 Output Shape              Param #   
=================================================================
conv2d (Conv2D)              (None, 98, 32, 32)        352       
_________________________________________________________________
conv2d_1 (Conv2D)            (None, 98, 12, 64)        10304     
_________________________________________________________________
max_pooling2d (MaxPooling2D) multiple                  0         
_________________________________________________________________
flatten (Flatten)            (None, 384)               0         
_________________________________________________________________
concatenate (Concatenate)    (None, 768)               0         
_________________________________________________________________
dropout (Dropout)            (None, 128)               0         
_________________________________________________________________
dense (Dense)                (None, 128)               98432     
_________________________________________________________________
dense_1 (Dense)              (None, 128)               16512     
_________________________________________________________________
dense_2 (Dense)              (None, 4)                 516       
_________________________________________________________________
dense_3 (Dense)              (None, 1)                 5         
=================================================================
Total params: 126,121
Trainable params: 126,121
Non-trainable params: 0
_________________________________________________________________
pretraining starts
at iteration  1
Epoch 20, Loss: 0.8268482685089111
Epoch 40, Loss: 0.8226655721664429
Epoch 60, Loss: 0.8187494277954102
Epoch 80, Loss: 0.8119617104530334
Epoch 100, Loss: 0.7962607145309448
…
