…
Parsing HapMap recombination rates...
parameters <class 'list'> [<util.Parameter object at 0x7f23961e23d0>, <util.Parameter object at 0x7f2372de3790>, <util.Parameter object at 0x7f2372de3450>, <util.Parameter object at 0x7f2372de3510>, <util.Parameter object at 0x7f2372df2650>, <util.Parameter object at 0x7f2372df2d90>, <util.Parameter object at 0x7f2372dfca90>]
Model: "two_pop_model"
_________________________________________________________________
Layer (type)                 Output Shape              Param #   
=================================================================
conv2d (Conv2D)              (None, 98, 32, 32)        352       
_________________________________________________________________
conv2d_1 (Conv2D)            (None, 98, 12, 64)        10304     
_________________________________________________________________
max_pooling2d (MaxPooling2D) multiple                  0         
_________________________________________________________________
flatten (Flatten)            (None, 384)               0         
_________________________________________________________________
concatenate (Concatenate)    (None, 768)               0         
_________________________________________________________________
dropout (Dropout)            (None, 128)               0         
_________________________________________________________________
dense (Dense)                (None, 128)               98432     
_________________________________________________________________
dense_1 (Dense)              (None, 128)               16512     
_________________________________________________________________
dense_2 (Dense)              (None, 4)                 516       
_________________________________________________________________
dense_3 (Dense)              (None, 1)                 5         
=================================================================
Total params: 126,121
Trainable params: 126,121
Non-trainable params: 0
_________________________________________________________________
pretraining starts
at iteration  1
Epoch 20, Loss: 0.8268485069274902
Epoch 40, Loss: 0.8226659297943115
Epoch 60, Loss: 0.8187494277954102
Epoch 80, Loss: 0.8119616508483887
Epoch 100, Loss: 0.7962608337402344
…
