…
['GT'] ['CHROM', 'POS']
raw (11703947, 99, 2)
after haps (11703947, 198)
Parsing HapMap recombination rates...
parameters <class 'list'> [<util.Parameter object at 0x7f22cb3fbc90>, <util.Parameter object at 0x7f233f29c150>, <util.Parameter object at 0x7f22ca9f1810>, <util.Parameter object at 0x7f22caa17950>, <util.Parameter object at 0x7f22caa17850>]
Model: "one_pop_model"
_________________________________________________________________
Layer (type)                 Output Shape              Param #   
=================================================================
conv2d (Conv2D)              (None, 198, 32, 32)       352       
_________________________________________________________________
conv2d_1 (Conv2D)            (None, 198, 12, 64)       10304     
_________________________________________________________________
max_pooling2d (MaxPooling2D) multiple                  0         
_________________________________________________________________
flatten (Flatten)            (None, 384)               0         
_________________________________________________________________
dropout (Dropout)            (None, 128)               0         
_________________________________________________________________
dense (Dense)                (None, 128)               49280     
_________________________________________________________________
dense_1 (Dense)              (None, 128)               16512     
_________________________________________________________________
dense_2 (Dense)              (None, 1)                 129       
=================================================================
Total params: 76,577
Trainable params: 76,577
Non-trainable params: 0
_________________________________________________________________
(198, 36, 2)
pretraining starts
at iteration  1
Epoch 20, Loss: 20806.46484375
Epoch 40, Loss: 7765.91064453125
Epoch 60, Loss: 1654.505859375
Epoch 80, Loss: 1340.1378173828125
Epoch 100, Loss: 1310.458251953125
…
