…
T2	350	100	1500
['calldata', 'variants']
['GT'] ['CHROM', 'POS']
raw (10586386, 80, 2)
after haps (10586386, 160)
parameters <class 'list'> [<util.Parameter object at 0x7f5b183877d0>, <util.Parameter object at 0x7f5b18387890>, <util.Parameter object at 0x7f5b17ce6ed0>, <util.Parameter object at 0x7f5b180522d0>, <util.Parameter object at 0x7f5b17c91190>]
Model: "one_pop_model"
_________________________________________________________________
Layer (type)                 Output Shape              Param #   
=================================================================
conv2d (Conv2D)              (None, 160, 32, 32)       352       
_________________________________________________________________
conv2d_1 (Conv2D)            (None, 160, 12, 64)       10304     
_________________________________________________________________
max_pooling2d (MaxPooling2D) multiple                  0         
_________________________________________________________________
flatten (Flatten)            (None, 384)               0         
_________________________________________________________________
dropout (Dropout)            (None, 128)               0         
_________________________________________________________________
dense (Dense)                (None, 128)               49280     
_________________________________________________________________
dense_1 (Dense)              (None, 128)               16512     
_________________________________________________________________
dense_2 (Dense)              (None, 4)                 516       
_________________________________________________________________
dense_3 (Dense)              (None, 1)                 5         
=================================================================
Total params: 76,969
Trainable params: 76,969
Non-trainable params: 0
_________________________________________________________________
(160, 36, 2)
pretraining starts
at iteration  1
Epoch 20, Loss: 0.8314492702484131
Epoch 40, Loss: 0.8163326978683472
Epoch 60, Loss: 0.8120013475418091
Epoch 80, Loss: 0.8036460280418396
Epoch 100, Loss: 0.7900186777114868
…
