…
['GT'] ['CHROM', 'POS']
raw (10586386, 80, 2)
after haps (10586386, 160)
Parsing HapMap recombination rates...
parameters <class 'list'> [<util.Parameter object at 0x7f484ece1390>, <util.Parameter object at 0x7f48c3038190>, <util.Parameter object at 0x7f485020a3d0>, <util.Parameter object at 0x7f484e665e90>, <util.Parameter object at 0x7f484e665e10>]
Model: "one_pop_model"
_________________________________________________________________
Layer (type)                 Output Shape              Param #   
=================================================================
conv2d (Conv2D)              (None, 160, 32, 32)       352       
_________________________________________________________________
conv2d_1 (Conv2D)            (None, 160, 12, 64)       10304     
_________________________________________________________________
max_pooling2d (MaxPooling2D) multiple                  0         
_________________________________________________________________
flatten (Flatten)            (None, 384)               0         
_________________________________________________________________
dropout (Dropout)            (None, 128)               0         
_________________________________________________________________
dense (Dense)                (None, 128)               49280     
_________________________________________________________________
dense_1 (Dense)              (None, 128)               16512     
_________________________________________________________________
dense_2 (Dense)              (None, 1)                 129       
=================================================================
Total params: 76,577
Trainable params: 76,577
Non-trainable params: 0
_________________________________________________________________
(160, 36, 2)
pretraining starts
at iteration  1
Epoch 20, Loss: 8594.0009765625
Epoch 40, Loss: 2039.3382568359375
Epoch 60, Loss: 1072.6741943359375
Epoch 80, Loss: 821.2578125
Epoch 100, Loss: 671.5286865234375
…
