…
Parsing HapMap recombination rates...
parameters <class 'list'> [<util.Parameter object at 0x7f0432e99b10>, <util.Parameter object at 0x7f0432e99d50>, <util.Parameter object at 0x7f04327f8fd0>, <util.Parameter object at 0x7f04a6e65f50>, <util.Parameter object at 0x7f04327a7650>, <util.Parameter object at 0x7f04327a7550>, <util.Parameter object at 0x7f04327a7490>]
Model: "two_pop_model"
_________________________________________________________________
Layer (type)                 Output Shape              Param #   
=================================================================
conv2d (Conv2D)              (None, 98, 32, 32)        352       
_________________________________________________________________
conv2d_1 (Conv2D)            (None, 98, 12, 64)        10304     
_________________________________________________________________
max_pooling2d (MaxPooling2D) multiple                  0         
_________________________________________________________________
flatten (Flatten)            (None, 384)               0         
_________________________________________________________________
concatenate (Concatenate)    (None, 768)               0         
_________________________________________________________________
dropout (Dropout)            (None, 128)               0         
_________________________________________________________________
dense (Dense)                (None, 128)               98432     
_________________________________________________________________
dense_1 (Dense)              (None, 128)               16512     
_________________________________________________________________
dense_2 (Dense)              (None, 4)                 516       
_________________________________________________________________
dense_3 (Dense)              (None, 1)                 5         
=================================================================
Total params: 126,121
Trainable params: 126,121
Non-trainable params: 0
_________________________________________________________________
pretraining starts
at iteration  1
Traceback (most recent call last):
  File "pg_gan.py", line 435, in <module>
    main()
  File "pg_gan.py", line 65, in main
    iterator, VAE_model, parameters, opts.seed, toy=opts.toy)
…
