…
Parsing HapMap recombination rates...
parameters <class 'list'> [<util.Parameter object at 0x7f0a18c8b490>, <util.Parameter object at 0x7f0a18be02d0>, <util.Parameter object at 0x7f0a18be0a90>, <util.Parameter object at 0x7f0a18be0b10>, <util.Parameter object at 0x7f0a18be0fd0>, <util.Parameter object at 0x7f0a18bda8d0>, <util.Parameter object at 0x7f0a18bda810>]
Model: "two_pop_model"
_________________________________________________________________
Layer (type)                 Output Shape              Param #   
=================================================================
conv2d (Conv2D)              (None, 98, 32, 32)        352       
_________________________________________________________________
conv2d_1 (Conv2D)            (None, 98, 12, 64)        10304     
_________________________________________________________________
max_pooling2d (MaxPooling2D) multiple                  0         
_________________________________________________________________
flatten (Flatten)            (None, 384)               0         
_________________________________________________________________
concatenate (Concatenate)    (None, 768)               0         
_________________________________________________________________
dropout (Dropout)            (None, 128)               0         
_________________________________________________________________
dense (Dense)                (None, 128)               98432     
_________________________________________________________________
dense_1 (Dense)              (None, 128)               16512     
_________________________________________________________________
dense_2 (Dense)              (None, 8)                 1032      
_________________________________________________________________
dense_3 (Dense)              (None, 1)                 9         
=================================================================
Total params: 126,641
Trainable params: 126,641
Non-trainable params: 0
_________________________________________________________________
pretraining starts
at iteration  1
Epoch 20, Loss: 0.8305293321609497
Epoch 40, Loss: 0.8259880542755127
Epoch 60, Loss: 0.8230732679367065
Epoch 80, Loss: 0.8180712461471558
Epoch 100, Loss: 0.7978510856628418
…
