…
Parsing HapMap recombination rates...
parameters <class 'list'> [<util.Parameter object at 0x7fd5357aacd0>, <util.Parameter object at 0x7fd5358dae90>, <util.Parameter object at 0x7fd5358dac90>, <util.Parameter object at 0x7fd5358dacd0>, <util.Parameter object at 0x7fd5358da950>, <util.Parameter object at 0x7fd5358da510>, <util.Parameter object at 0x7fd535860e90>]
Model: "two_pop_model"
_________________________________________________________________
Layer (type)                 Output Shape              Param #   
=================================================================
conv2d (Conv2D)              (None, 98, 32, 32)        352       
_________________________________________________________________
conv2d_1 (Conv2D)            (None, 98, 12, 64)        10304     
_________________________________________________________________
max_pooling2d (MaxPooling2D) multiple                  0         
_________________________________________________________________
flatten (Flatten)            (None, 384)               0         
_________________________________________________________________
concatenate (Concatenate)    (None, 768)               0         
_________________________________________________________________
dropout (Dropout)            (None, 128)               0         
_________________________________________________________________
dense (Dense)                (None, 128)               98432     
_________________________________________________________________
dense_1 (Dense)              (None, 128)               16512     
_________________________________________________________________
dense_2 (Dense)              (None, 8)                 1032      
_________________________________________________________________
dense_3 (Dense)              (None, 1)                 9         
=================================================================
Total params: 126,641
Trainable params: 126,641
Non-trainable params: 0
_________________________________________________________________
pretraining starts
at iteration  1
Epoch 20, Loss: 0.8305292129516602
Epoch 40, Loss: 0.8259884119033813
Epoch 60, Loss: 0.823073148727417
Epoch 80, Loss: 0.8180713653564453
Epoch 100, Loss: 0.7978508472442627
…
