…
Parsing HapMap recombination rates...
parameters <class 'list'> [<util.Parameter object at 0x7fdf72c2fb10>, <util.Parameter object at 0x7fdf72c2fd50>, <util.Parameter object at 0x7fdf7258efd0>, <util.Parameter object at 0x7fdfe6e37190>, <util.Parameter object at 0x7fdf7253d610>, <util.Parameter object at 0x7fdf7253d510>, <util.Parameter object at 0x7fdf7253d450>]
Model: "two_pop_model"
_________________________________________________________________
Layer (type)                 Output Shape              Param #   
=================================================================
conv2d (Conv2D)              (None, 98, 32, 32)        352       
_________________________________________________________________
conv2d_1 (Conv2D)            (None, 98, 12, 64)        10304     
_________________________________________________________________
max_pooling2d (MaxPooling2D) multiple                  0         
_________________________________________________________________
flatten (Flatten)            (None, 384)               0         
_________________________________________________________________
concatenate (Concatenate)    (None, 768)               0         
_________________________________________________________________
dropout (Dropout)            (None, 128)               0         
_________________________________________________________________
dense (Dense)                (None, 128)               98432     
_________________________________________________________________
dense_1 (Dense)              (None, 128)               16512     
_________________________________________________________________
dense_2 (Dense)              (None, 4)                 516       
_________________________________________________________________
dense_3 (Dense)              (None, 1)                 5         
=================================================================
Total params: 126,121
Trainable params: 126,121
Non-trainable params: 0
_________________________________________________________________
pretraining starts
at iteration  1
Epoch 20, Loss: 165.3904571533203
Epoch 40, Loss: 96.35092163085938
Epoch 60, Loss: 62.88093948364258
Epoch 80, Loss: 38.87862777709961
Epoch 100, Loss: 48.3798713684082
…
