…
Parsing HapMap recombination rates...
parameters <class 'list'> [<util.Parameter object at 0x7f2a09b22350>, <util.Parameter object at 0x7f2a09b223d0>, <util.Parameter object at 0x7f2a09b22410>, <util.Parameter object at 0x7f2a7daf15d0>, <util.Parameter object at 0x7f2a09428cd0>, <util.Parameter object at 0x7f2a09428bd0>, <util.Parameter object at 0x7f2a09428b10>]
Model: "two_pop_model"
_________________________________________________________________
Layer (type)                 Output Shape              Param #   
=================================================================
conv2d (Conv2D)              (None, 98, 32, 32)        352       
_________________________________________________________________
conv2d_1 (Conv2D)            (None, 98, 12, 64)        10304     
_________________________________________________________________
max_pooling2d (MaxPooling2D) multiple                  0         
_________________________________________________________________
flatten (Flatten)            (None, 384)               0         
_________________________________________________________________
concatenate (Concatenate)    (None, 768)               0         
_________________________________________________________________
dropout (Dropout)            (None, 128)               0         
_________________________________________________________________
dense (Dense)                (None, 128)               98432     
_________________________________________________________________
dense_1 (Dense)              (None, 128)               16512     
_________________________________________________________________
dense_2 (Dense)              (None, 4)                 516       
_________________________________________________________________
dense_3 (Dense)              (None, 1)                 5         
=================================================================
Total params: 126,121
Trainable params: 126,121
Non-trainable params: 0
_________________________________________________________________

ITER 0
time 16:34:40.770512
0 proposal [21267.60051133192, -0.03783840016756129, 16586.264592420433, 22352.880538480826, 21417.92890164554, 4885.76381912851, 501.1820527151722] 0.54341996
…
