…
_________________________________________________________________
Layer (type)                 Output Shape              Param #   
=================================================================
conv2d (Conv2D)              multiple                  352       
_________________________________________________________________
conv2d_1 (Conv2D)            multiple                  10304     
_________________________________________________________________
max_pooling2d (MaxPooling2D) multiple                  0         
_________________________________________________________________
flatten (Flatten)            (None, 384)               0         
_________________________________________________________________
concatenate (Concatenate)    (None, 768)               0         
_________________________________________________________________
dropout (Dropout)            (None, 128)               0         
_________________________________________________________________
dense (Dense)                (None, 128)               98432     
_________________________________________________________________
dense_1 (Dense)              (None, 128)               16512     
_________________________________________________________________
dense_2 (Dense)              (None, 4)                 516       
_________________________________________________________________
dense_3 (Dense)              (None, 1)                 5         
=================================================================
Total params: 126,121
Trainable params: 126,121
Non-trainable params: 0
_________________________________________________________________
pretraining starts
at iteration  1
Epoch 20, Loss: 90.3132553100586
Epoch 40, Loss: 38.34349822998047
Epoch 60, Loss: 34.43796157836914
Epoch 80, Loss: 25.806982040405273
Epoch 100, Loss: 16.4663028717041
…
