…
Parsing HapMap recombination rates...
parameters <class 'list'> [<util.Parameter object at 0x7f0489d59b50>, <util.Parameter object at 0x7f0489d59d90>, <util.Parameter object at 0x7f04896b8f10>, <util.Parameter object at 0x7f04fdf61150>, <util.Parameter object at 0x7f0489667650>, <util.Parameter object at 0x7f0489667550>, <util.Parameter object at 0x7f0489667490>]
Model: "two_pop_model"
_________________________________________________________________
Layer (type)                 Output Shape              Param #   
=================================================================
conv2d (Conv2D)              (None, 98, 32, 32)        352       
_________________________________________________________________
conv2d_1 (Conv2D)            (None, 98, 12, 64)        10304     
_________________________________________________________________
max_pooling2d (MaxPooling2D) multiple                  0         
_________________________________________________________________
flatten (Flatten)            (None, 384)               0         
_________________________________________________________________
concatenate (Concatenate)    (None, 768)               0         
_________________________________________________________________
dropout (Dropout)            (None, 128)               0         
_________________________________________________________________
dense (Dense)                (None, 128)               98432     
_________________________________________________________________
dense_1 (Dense)              (None, 128)               16512     
_________________________________________________________________
dense_2 (Dense)              (None, 4)                 516       
_________________________________________________________________
dense_3 (Dense)              (None, 1)                 5         
=================================================================
Total params: 126,121
Trainable params: 126,121
Non-trainable params: 0
_________________________________________________________________

ITER 0
time 11:03:10.255826
0 proposal [15783.053293536985, -0.15635024205593906, 11756.075488497729, 17320.54991973094, 17369.84698779941, 2913.844044352896, 1201.5849507151552] 0.68834037
…
