…
Parsing HapMap recombination rates...
parameters <class 'list'> [<util.Parameter object at 0x7f2ecb48fa90>, <util.Parameter object at 0x7f2ecb48fcd0>, <util.Parameter object at 0x7f2ecadeefd0>, <util.Parameter object at 0x7f2f3f69b190>, <util.Parameter object at 0x7f2ecad9d610>, <util.Parameter object at 0x7f2ecad9d510>, <util.Parameter object at 0x7f2ecad9d450>]
Model: "two_pop_model"
_________________________________________________________________
Layer (type)                 Output Shape              Param #   
=================================================================
conv2d (Conv2D)              (None, 98, 32, 32)        352       
_________________________________________________________________
conv2d_1 (Conv2D)            (None, 98, 12, 64)        10304     
_________________________________________________________________
max_pooling2d (MaxPooling2D) multiple                  0         
_________________________________________________________________
flatten (Flatten)            (None, 384)               0         
_________________________________________________________________
concatenate (Concatenate)    (None, 768)               0         
_________________________________________________________________
dropout (Dropout)            (None, 128)               0         
_________________________________________________________________
dense (Dense)                (None, 128)               98432     
_________________________________________________________________
dense_1 (Dense)              (None, 128)               16512     
_________________________________________________________________
dense_2 (Dense)              (None, 4)                 516       
_________________________________________________________________
dense_3 (Dense)              (None, 1)                 5         
=================================================================
Total params: 126,121
Trainable params: 126,121
Non-trainable params: 0
_________________________________________________________________

ITER 0
time 11:38:18.611543
0 proposal [21539.048080199333, -0.06699029373674179, 25141.148256124518, 12682.350896772274, 12328.268186258403, 2216.116798093576, 1341.0223408700124] 0.68845475
…
