…
Parsing HapMap recombination rates...
parameters <class 'list'> [<util.Parameter object at 0x7f266388ba90>, <util.Parameter object at 0x7f266388bcd0>, <util.Parameter object at 0x7f26631eaf10>, <util.Parameter object at 0x7f26d7a93190>, <util.Parameter object at 0x7f2663199550>, <util.Parameter object at 0x7f2663199450>, <util.Parameter object at 0x7f2663199390>]
Model: "two_pop_model"
_________________________________________________________________
Layer (type)                 Output Shape              Param #   
=================================================================
conv2d (Conv2D)              (None, 98, 32, 32)        352       
_________________________________________________________________
conv2d_1 (Conv2D)            (None, 98, 12, 64)        10304     
_________________________________________________________________
max_pooling2d (MaxPooling2D) multiple                  0         
_________________________________________________________________
flatten (Flatten)            (None, 384)               0         
_________________________________________________________________
concatenate (Concatenate)    (None, 768)               0         
_________________________________________________________________
dropout (Dropout)            (None, 128)               0         
_________________________________________________________________
dense (Dense)                (None, 128)               98432     
_________________________________________________________________
dense_1 (Dense)              (None, 128)               16512     
_________________________________________________________________
dense_2 (Dense)              (None, 4)                 516       
_________________________________________________________________
dense_3 (Dense)              (None, 1)                 5         
=================================================================
Total params: 126,121
Trainable params: 126,121
Non-trainable params: 0
_________________________________________________________________
pretraining starts
at iteration  1
Epoch 20, Loss: 0.8268482089042664
Epoch 40, Loss: 0.8226655125617981
Epoch 60, Loss: 0.8187495470046997
Epoch 80, Loss: 0.8119614124298096
Epoch 100, Loss: 0.7962605357170105
…
