…
Parsing HapMap recombination rates...
parameters <class 'list'> [<util.Parameter object at 0x7faeefd4fb10>, <util.Parameter object at 0x7faeefd4fd50>, <util.Parameter object at 0x7faeef6aef90>, <util.Parameter object at 0x7faf63f5b190>, <util.Parameter object at 0x7faeef65d590>, <util.Parameter object at 0x7faeef65d490>, <util.Parameter object at 0x7faeef65d3d0>]
Model: "two_pop_model"
_________________________________________________________________
Layer (type)                 Output Shape              Param #   
=================================================================
conv2d (Conv2D)              (None, 98, 32, 32)        352       
_________________________________________________________________
conv2d_1 (Conv2D)            (None, 98, 12, 64)        10304     
_________________________________________________________________
max_pooling2d (MaxPooling2D) multiple                  0         
_________________________________________________________________
flatten (Flatten)            (None, 384)               0         
_________________________________________________________________
concatenate (Concatenate)    (None, 768)               0         
_________________________________________________________________
dropout (Dropout)            (None, 128)               0         
_________________________________________________________________
dense (Dense)                (None, 128)               98432     
_________________________________________________________________
dense_1 (Dense)              (None, 128)               16512     
_________________________________________________________________
dense_2 (Dense)              (None, 4)                 516       
_________________________________________________________________
dense_3 (Dense)              (None, 1)                 5         
=================================================================
Total params: 126,121
Trainable params: 126,121
Non-trainable params: 0
_________________________________________________________________
pretraining starts
at iteration  1
Epoch 20, Loss: 0.8305295705795288
Epoch 40, Loss: 0.8259881734848022
Epoch 60, Loss: 0.8230728507041931
Epoch 80, Loss: 0.8180714845657349
Epoch 100, Loss: 0.7978510856628418
…
