…
Parsing HapMap recombination rates...
parameters <class 'list'> [<util.Parameter object at 0x7fa59dab8bd0>, <util.Parameter object at 0x7fa59dab8e10>, <util.Parameter object at 0x7fa59d417f90>, <util.Parameter object at 0x7fa611cc0190>, <util.Parameter object at 0x7fa59d3c6650>, <util.Parameter object at 0x7fa59d3c6550>, <util.Parameter object at 0x7fa59d3c6490>]
Model: "two_pop_model"
_________________________________________________________________
Layer (type)                 Output Shape              Param #   
=================================================================
conv2d (Conv2D)              (None, 98, 32, 32)        352       
_________________________________________________________________
conv2d_1 (Conv2D)            (None, 98, 12, 64)        10304     
_________________________________________________________________
max_pooling2d (MaxPooling2D) multiple                  0         
_________________________________________________________________
flatten (Flatten)            (None, 384)               0         
_________________________________________________________________
concatenate (Concatenate)    (None, 768)               0         
_________________________________________________________________
dropout (Dropout)            (None, 128)               0         
_________________________________________________________________
dense (Dense)                (None, 128)               98432     
_________________________________________________________________
dense_1 (Dense)              (None, 128)               16512     
_________________________________________________________________
dense_2 (Dense)              (None, 8)                 1032      
_________________________________________________________________
dense_3 (Dense)              (None, 1)                 9         
=================================================================
Total params: 126,641
Trainable params: 126,641
Non-trainable params: 0
_________________________________________________________________

ITER 0
time 12:20:42.295109
0 proposal [21707.196282940844, 0.1259144461987759, 5219.220893510952, 10799.76668005129, 3327.1475323182244, 4793.965045810971, 799.6730980183224] 4.8459206
…
