…
_________________________________________________________________
Layer (type)                 Output Shape              Param #   
=================================================================
conv2d (Conv2D)              multiple                  352       
_________________________________________________________________
conv2d_1 (Conv2D)            multiple                  10304     
_________________________________________________________________
max_pooling2d (MaxPooling2D) multiple                  0         
_________________________________________________________________
flatten (Flatten)            (None, 384)               0         
_________________________________________________________________
concatenate (Concatenate)    (None, 768)               0         
_________________________________________________________________
dropout (Dropout)            (None, 128)               0         
_________________________________________________________________
dense (Dense)                (None, 128)               98432     
_________________________________________________________________
dense_1 (Dense)              (None, 128)               16512     
_________________________________________________________________
dense_2 (Dense)              (None, 8)                 1032      
_________________________________________________________________
dense_3 (Dense)              (None, 1)                 9         
=================================================================
Total params: 126,641
Trainable params: 126,641
Non-trainable params: 0
_________________________________________________________________
pretraining starts
at iteration  1
Epoch 20, Loss: 203.4447784423828
Epoch 40, Loss: 77.07794189453125
Epoch 60, Loss: 47.88393783569336
Epoch 80, Loss: 43.3182373046875
Epoch 100, Loss: 36.03965377807617
…
