…
Parsing HapMap recombination rates...
parameters <class 'list'> [<util.Parameter object at 0x7f3ed62ddc50>, <util.Parameter object at 0x7f3ed62dde90>, <util.Parameter object at 0x7f3ed5c40f10>, <util.Parameter object at 0x7f3f4a2adf50>, <util.Parameter object at 0x7f3ed5bef690>, <util.Parameter object at 0x7f3ed5bef590>, <util.Parameter object at 0x7f3ed5bef4d0>]
Model: "two_pop_model"
_________________________________________________________________
Layer (type)                 Output Shape              Param #   
=================================================================
conv2d (Conv2D)              (None, 98, 32, 32)        352       
_________________________________________________________________
conv2d_1 (Conv2D)            (None, 98, 12, 64)        10304     
_________________________________________________________________
max_pooling2d (MaxPooling2D) multiple                  0         
_________________________________________________________________
flatten (Flatten)            (None, 384)               0         
_________________________________________________________________
concatenate (Concatenate)    (None, 768)               0         
_________________________________________________________________
dropout (Dropout)            (None, 128)               0         
_________________________________________________________________
dense (Dense)                (None, 128)               98432     
_________________________________________________________________
dense_1 (Dense)              (None, 128)               16512     
_________________________________________________________________
dense_2 (Dense)              (None, 8)                 1032      
_________________________________________________________________
dense_3 (Dense)              (None, 1)                 9         
=================================================================
Total params: 126,641
Trainable params: 126,641
Non-trainable params: 0
_________________________________________________________________

ITER 0
time 12:23:21.811741
0 proposal [23470.770461523007, -0.09890517866084325, 9436.358908486956, 19924.842607809973, 6304.3400004470695, 2570.534831621165, 1496.7734789979702] 5.721498
…
