…
T2	350	100	1500
['calldata', 'variants']
['GT'] ['CHROM', 'POS']
raw (11703947, 99, 2)
after haps (11703947, 198)
parameters <class 'list'> [<util.Parameter object at 0x7f6030afc310>, <util.Parameter object at 0x7f6030afc210>, <util.Parameter object at 0x7f6030e6ab10>, <util.Parameter object at 0x7f6052bc7410>, <util.Parameter object at 0x7f6030480a50>]
Model: "one_pop_model"
_________________________________________________________________
Layer (type)                 Output Shape              Param #   
=================================================================
conv2d (Conv2D)              (None, 198, 32, 32)       352       
_________________________________________________________________
conv2d_1 (Conv2D)            (None, 198, 12, 64)       10304     
_________________________________________________________________
max_pooling2d (MaxPooling2D) multiple                  0         
_________________________________________________________________
flatten (Flatten)            (None, 384)               0         
_________________________________________________________________
dropout (Dropout)            (None, 128)               0         
_________________________________________________________________
dense (Dense)                (None, 128)               49280     
_________________________________________________________________
dense_1 (Dense)              (None, 128)               16512     
_________________________________________________________________
dense_2 (Dense)              (None, 4)                 516       
_________________________________________________________________
dense_3 (Dense)              (None, 1)                 5         
=================================================================
Total params: 76,969
Trainable params: 76,969
Non-trainable params: 0
_________________________________________________________________
(198, 36, 2)

ITER 0
time 14:32:04.587091
0 proposal [27027.196170515414, 3225.5083054622883, 0.017691252288834777, 4678.160197331798, 1340.1901261365394] 0.70006335
1 proposal [24541.49020099228, 3225.5083054622883, 0.017691252288834777, 4678.160197331798, 1340.1901261365394] 0.70009035
…
