…
T2	350	100	1500
['calldata', 'variants']
['GT'] ['CHROM', 'POS']
raw (11703947, 99, 2)
after haps (11703947, 198)
parameters <class 'list'> [<util.Parameter object at 0x7f35beb66a10>, <util.Parameter object at 0x7f36331c0ed0>, <util.Parameter object at 0x7f35beecfcd0>, <util.Parameter object at 0x7f35beb8aa90>, <util.Parameter object at 0x7f35beb8a9d0>]
Model: "one_pop_model"
_________________________________________________________________
Layer (type)                 Output Shape              Param #   
=================================================================
conv2d (Conv2D)              (None, 198, 32, 32)       352       
_________________________________________________________________
conv2d_1 (Conv2D)            (None, 198, 12, 64)       10304     
_________________________________________________________________
max_pooling2d (MaxPooling2D) multiple                  0         
_________________________________________________________________
flatten (Flatten)            (None, 384)               0         
_________________________________________________________________
dropout (Dropout)            (None, 128)               0         
_________________________________________________________________
dense (Dense)                (None, 128)               49280     
_________________________________________________________________
dense_1 (Dense)              (None, 128)               16512     
_________________________________________________________________
dense_2 (Dense)              (None, 4)                 516       
_________________________________________________________________
dense_3 (Dense)              (None, 1)                 5         
=================================================================
Total params: 76,969
Trainable params: 76,969
Non-trainable params: 0
_________________________________________________________________
(198, 36, 2)
pretraining starts
at iteration  1
Epoch 20, Loss: 0.8291749954223633
Epoch 40, Loss: 0.8201582431793213
Epoch 60, Loss: 0.8168970346450806
Epoch 80, Loss: 0.8067862391471863
Epoch 100, Loss: 0.7921813726425171
…
