…
T2	350	100	1500
['calldata', 'variants']
['GT'] ['CHROM', 'POS']
raw (10586386, 80, 2)
after haps (10586386, 160)
parameters <class 'list'> [<util.Parameter object at 0x7f242e497850>, <util.Parameter object at 0x7f242ddf6ed0>, <util.Parameter object at 0x7f24a27f20d0>, <util.Parameter object at 0x7f242de1bf90>, <util.Parameter object at 0x7f242de1be90>]
Model: "one_pop_model"
_________________________________________________________________
Layer (type)                 Output Shape              Param #   
=================================================================
conv2d (Conv2D)              (None, 160, 32, 32)       352       
_________________________________________________________________
conv2d_1 (Conv2D)            (None, 160, 12, 64)       10304     
_________________________________________________________________
max_pooling2d (MaxPooling2D) multiple                  0         
_________________________________________________________________
flatten (Flatten)            (None, 384)               0         
_________________________________________________________________
dropout (Dropout)            (None, 128)               0         
_________________________________________________________________
dense (Dense)                (None, 128)               49280     
_________________________________________________________________
dense_1 (Dense)              (None, 128)               16512     
_________________________________________________________________
dense_2 (Dense)              (None, 4)                 516       
_________________________________________________________________
dense_3 (Dense)              (None, 1)                 5         
=================================================================
Total params: 76,969
Trainable params: 76,969
Non-trainable params: 0
_________________________________________________________________
(160, 36, 2)

ITER 0
time 17:32:38.034129
0 proposal [27027.196170515414, 3225.5083054622883, 0.017691252288834777, 4678.160197331798, 1340.1901261365394] 0.68213105
1 proposal [24541.49020099228, 3225.5083054622883, 0.017691252288834777, 4678.160197331798, 1340.1901261365394] 0.7451267
…
