…
T2	350	100	1500
['calldata', 'variants']
['GT'] ['CHROM', 'POS']
raw (11703947, 99, 2)
after haps (11703947, 198)
parameters <class 'list'> [<util.Parameter object at 0x7f9e0464d690>, <util.Parameter object at 0x7f9e0464d6d0>, <util.Parameter object at 0x7f9e0430a710>, <util.Parameter object at 0x7f9e03f56210>, <util.Parameter object at 0x7f9e03f56110>]
Model: "one_pop_model"
_________________________________________________________________
Layer (type)                 Output Shape              Param #   
=================================================================
conv2d (Conv2D)              (None, 198, 32, 32)       352       
_________________________________________________________________
conv2d_1 (Conv2D)            (None, 198, 12, 64)       10304     
_________________________________________________________________
max_pooling2d (MaxPooling2D) multiple                  0         
_________________________________________________________________
flatten (Flatten)            (None, 384)               0         
_________________________________________________________________
dropout (Dropout)            (None, 128)               0         
_________________________________________________________________
dense (Dense)                (None, 128)               49280     
_________________________________________________________________
dense_1 (Dense)              (None, 128)               16512     
_________________________________________________________________
dense_2 (Dense)              (None, 4)                 516       
_________________________________________________________________
dense_3 (Dense)              (None, 1)                 5         
=================================================================
Total params: 76,969
Trainable params: 76,969
Non-trainable params: 0
_________________________________________________________________
(198, 36, 2)
ITER 0
time 18:11:43.207678
0 proposal [7796.962779013781, 5804.743978514645, 0.024071868073616255, 3561.219158777914, 340.98816687320834] 2.3417559
1 proposal [5311.256809490646, 5804.743978514645, 0.024071868073616255, 3561.219158777914, 340.98816687320834] 2.4286072
…
