…
T2	350	100	1500
['calldata', 'variants']
['GT'] ['CHROM', 'POS']
raw (10586386, 80, 2)
after haps (10586386, 160)
parameters <class 'list'> [<util.Parameter object at 0x7ff19cd30a50>, <util.Parameter object at 0x7ff210f3d750>, <util.Parameter object at 0x7ff19c9ff450>, <util.Parameter object at 0x7ff19c639250>, <util.Parameter object at 0x7ff19c639190>]
Model: "one_pop_model"
_________________________________________________________________
Layer (type)                 Output Shape              Param #   
=================================================================
conv2d (Conv2D)              (None, 160, 32, 32)       352       
_________________________________________________________________
conv2d_1 (Conv2D)            (None, 160, 12, 64)       10304     
_________________________________________________________________
max_pooling2d (MaxPooling2D) multiple                  0         
_________________________________________________________________
flatten (Flatten)            (None, 384)               0         
_________________________________________________________________
dropout (Dropout)            (None, 128)               0         
_________________________________________________________________
dense (Dense)                (None, 128)               49280     
_________________________________________________________________
dense_1 (Dense)              (None, 128)               16512     
_________________________________________________________________
dense_2 (Dense)              (None, 4)                 516       
_________________________________________________________________
dense_3 (Dense)              (None, 1)                 5         
=================================================================
Total params: 76,969
Trainable params: 76,969
Non-trainable params: 0
_________________________________________________________________
(160, 36, 2)
pretraining starts
at iteration  1
Epoch 20, Loss: 577.8533325195312
Epoch 40, Loss: 403.2699890136719
Epoch 60, Loss: 250.17156982421875
Epoch 80, Loss: 195.53619384765625
Epoch 100, Loss: 148.33401489257812
…
