…
T2	350	100	1500
['calldata', 'variants']
['GT'] ['CHROM', 'POS']
raw (10586386, 80, 2)
after haps (10586386, 160)
parameters <class 'list'> [<util.Parameter object at 0x7fcd79ed9cd0>, <util.Parameter object at 0x7fcdee8d6150>, <util.Parameter object at 0x7fcd7a24d910>, <util.Parameter object at 0x7fcd79f01e10>, <util.Parameter object at 0x7fcd79f01d10>]
Model: "one_pop_model"
_________________________________________________________________
Layer (type)                 Output Shape              Param #   
=================================================================
conv2d (Conv2D)              (None, 160, 32, 32)       352       
_________________________________________________________________
conv2d_1 (Conv2D)            (None, 160, 12, 64)       10304     
_________________________________________________________________
max_pooling2d (MaxPooling2D) multiple                  0         
_________________________________________________________________
flatten (Flatten)            (None, 384)               0         
_________________________________________________________________
dropout (Dropout)            (None, 128)               0         
_________________________________________________________________
dense (Dense)                (None, 128)               49280     
_________________________________________________________________
dense_1 (Dense)              (None, 128)               16512     
_________________________________________________________________
dense_2 (Dense)              (None, 1)                 129       
=================================================================
Total params: 76,577
Trainable params: 76,577
Non-trainable params: 0
_________________________________________________________________
(160, 36, 2)
pretraining starts
at iteration  1
Epoch 20, Loss: 8594.0009765625
Epoch 40, Loss: 2039.33837890625
Epoch 60, Loss: 1072.6741943359375
Epoch 80, Loss: 821.2576904296875
Epoch 100, Loss: 671.5284423828125
…
